Seed: 12345.0
_________________________________________________________________
Layer (type)                 Output Shape              Param #   
=================================================================
conv2d_1 (Conv2D)            (None, 26, 26, 32)        320       
_________________________________________________________________
max_pooling2d_1 (MaxPooling2 (None, 13, 13, 32)        0         
_________________________________________________________________
flatten_1 (Flatten)          (None, 5408)              0         
_________________________________________________________________
dense_1 (Dense)              (None, 512)               2769408   
_________________________________________________________________
dense_2 (Dense)              (None, 512)               262656    
_________________________________________________________________
output-layer (Dense)         (None, 10)                5130      
=================================================================
Total params: 3,037,514
Trainable params: 3,037,514
Non-trainable params: 0
_________________________________________________________________
Train on 60000 samples, validate on 10000 samples
Epoch 1/20

  500/60000 [..............................] - ETA: 56s - loss: 2.3036 - acc: 0.0980
 1000/60000 [..............................] - ETA: 43s - loss: 2.2211 - acc: 0.2480
…
